…
s=200000, num_workers=1, mode='train', use_tensorboard=False, celeba_image_dir='data/celeba/images', attr_path='data/celeba/list_attr_celeba.txt', rafd_image_dir='data/RaFD/train', log_dir='/Tmp/slurm.4112514.0/base/extra/stargan/logs', model_save_dir='/Tmp/slurm.4112514.0/base/extra/stargan/models', sample_dir='/Tmp/slurm.4112514.0/base/extra/stargan/samples', result_dir='/Tmp/slurm.4112514.0/base/extra/stargan/results', log_step=10, sample_step=1000, model_save_step=10000, lr_update_step=1000)
stargan.D1 [stdout] Generator(
stargan.D1 [stdout]   (main): Sequential(
stargan.D1 [stdout]     (0): Conv2d(8, 64, kernel_size=(7, 7), stride=(1, 1), padding=(3, 3), bias=False)
stargan.D1 [stdout]     (1): InstanceNorm2d(64, eps=1e-05, momentum=0.1, affine=True, track_running_stats=True)
stargan.D1 [stdout]     (2): ReLU(inplace=True)
stargan.D1 [stdout]     (3): Conv2d(64, 128, kernel_size=(4, 4), stride=(2, 2), padding=(1, 1), bias=False)
stargan.D1 [stdout]     (4): InstanceNorm2d(128, eps=1e-05, momentum=0.1, affine=True, track_running_stats=True)
stargan.D1 [stdout]     (5): ReLU(inplace=True)
stargan.D1 [stdout]     (6): Conv2d(128, 256, kernel_size=(4, 4), stride=(2, 2), padding=(1, 1), bias=False)
stargan.D1 [stdout]     (7): InstanceNorm2d(256, eps=1e-05, momentum=0.1, affine=True, track_running_stats=True)
stargan.D1 [stdout]     (8): ReLU(inplace=True)
stargan.D1 [stdout]     (9): ResidualBlock(
stargan.D1 [stdout]       (main): Sequential(
stargan.D1 [stdout]         (0): Conv2d(256, 256, kernel_size=(3, 3), stride=(1, 1), padding=(1, 1), bias=False)
stargan.D1 [stdout]         (1): InstanceNorm2d(256, eps=1e-05, momentum=0.1, affine=True, track_running_stats=True)
stargan.D1 [stdout]         (2): ReLU(inplace=True)
stargan.D1 [stdout]         (3): Conv2d(256, 256, kernel_size=(3, 3), stride=(1, 1), padding=(1, 1), bias=False)
stargan.D1 [stdout]         (4): InstanceNorm2d(256, eps=1e-05, momentum=0.1, affine=True, track_running_stats=True)
stargan.D1 [stdout]       )
stargan.D1 [stdout]     )
stargan.D1 [stdout]     (10): ResidualBlock(
stargan.D1 [stdout]       (main): Sequential(
stargan.D1 [stdout]         (0): Conv2d(256, 256, kernel_size=(3, 3), stride=(1, 1), padding=(1, 1), bias=False)
stargan.D1 [stdout]         (1): InstanceNorm2d(256, eps=1e-05, momentum=0.1, affine=True, track_running_stats=True)
stargan.D1 [stdout]         (2): ReLU(inplace=True)
stargan.D1 [stdout]         (3): Conv2d(256, 256, kernel_size=(3, 3), stride=(1, 1), padding=(1, 1), bias=False)
stargan.D1 [stdout]         (4): InstanceNorm2d(256, eps=1e-05, momentum=0.1, affine=True, track_running_stats=True)
stargan.D1 [stdout]       )
stargan.D1 [stdout]     )
stargan.D1 [stdout]     (11): ResidualBlock(
stargan.D1 [stdout]       (main): Sequential(
stargan.D1 [stdout]         (0): Conv2d(256, 256, kernel_size=(3, 3), stride=(1, 1), padding=(1, 1), bias=False)
stargan.D1 [stdout]         (1): InstanceNorm2d(256, eps=1e-05, momentum=0.1, affine=True, track_running_stats=True)
stargan.D1 [stdout]         (2): ReLU(inplace=True)
stargan.D1 [stdout]         (3): Conv2d(256, 256, kernel_size=(3, 3), stride=(1, 1), padding=(1, 1), bias=False)
stargan.D1 [stdout]         (4): InstanceNorm2d(256, eps=1e-05, momentum=0.1, affine=True, track_running_stats=True)
stargan.D1 [stdout]       )
stargan.D1 [stdout]     )
stargan.D1 [stdout]     (12): ResidualBlock(
stargan.D1 [stdout]       (main): Sequential(
stargan.D1 [stdout]         (0): Conv2d(256, 256, kernel_size=(3, 3), stride=(1, 1), padding=(1, 1), bias=False)
stargan.D1 [stdout]         (1): InstanceNorm2d(256, eps=1e-05, momentum=0.1, affine=True, track_running_stats=True)
stargan.D1 [stdout]         (2): ReLU(inplace=True)
stargan.D1 [stdout]         (3): Conv2d(256, 256, kernel_size=(3, 3), stride=(1, 1), padding=(1, 1), bias=False)
stargan.D1 [stdout]         (4): InstanceNorm2d(256, eps=1e-05, momentum=0.1, affine=True, track_running_stats=True)
stargan.D1 [stdout]       )
stargan.D1 [stdout]     )
stargan.D1 [stdout]     (13): ResidualBlock(
stargan.D1 [stdout]       (main): Sequential(
stargan.D1 [stdout]         (0): Conv2d(256, 256, kernel_size=(3, 3), stride=(1, 1), padding=(1, 1), bias=False)
stargan.D1 [stdout]         (1): InstanceNorm2d(256, eps=1e-05, momentum=0.1, affine=True, track_running_stats=True)
stargan.D1 [stdout]         (2): ReLU(inplace=True)
stargan.D1 [stdout]         (3): Conv2d(256, 256, kernel_size=(3, 3), stride=(1, 1), padding=(1, 1), bias=False)
stargan.D1 [stdout]         (4): InstanceNorm2d(256, eps=1e-05, momentum=0.1, affine=True, track_running_stats=True)
stargan.D1 [stdout]       )
stargan.D1 [stdout]     )
stargan.D1 [stdout]     (14): ResidualBlock(
stargan.D1 [stdout]       (main): Sequential(
stargan.D1 [stdout]         (0): Conv2d(256, 256, kernel_size=(3, 3), stride=(1, 1), padding=(1, 1), bias=False)
stargan.D1 [stdout]         (1): InstanceNorm2d(256, eps=1e-05, momentum=0.1, affine=True, track_running_stats=True)
stargan.D1 [stdout]         (2): ReLU(inplace=True)
stargan.D1 [stdout]         (3): Conv2d(256, 256, kernel_size=(3, 3), stride=(1, 1), padding=(1, 1), bias=False)
stargan.D1 [stdout]         (4): InstanceNorm2d(256, eps=1e-05, momentum=0.1, affine=True, track_running_stats=True)
stargan.D1 [stdout]       )
stargan.D1 [stdout]     )
stargan.D1 [stdout]     (15): ConvTranspose2d(256, 128, kernel_size=(4, 4), stride=(2, 2), padding=(1, 1), bias=False)
stargan.D1 [stdout]     (16): InstanceNorm2d(128, eps=1e-05, momentum=0.1, affine=True, track_running_stats=True)
stargan.D1 [stdout]     (17): ReLU(inplace=True)
stargan.D1 [stdout]     (18): ConvTranspose2d(128, 64, kernel_size=(4, 4), stride=(2, 2), padding=(1, 1), bias=False)
stargan.D1 [stdout]     (19): InstanceNorm2d(64, eps=1e-05, momentum=0.1, affine=True, track_running_stats=True)
stargan.D1 [stdout]     (20): ReLU(inplace=True)
stargan.D1 [stdout]     (21): Conv2d(64, 3, kernel_size=(7, 7), stride=(1, 1), padding=(3, 3), bias=False)
stargan.D1 [stdout]     (22): Tanh()
stargan.D1 [stdout]   )
stargan.D1 [stdout] )
stargan.D1 [stdout] G
stargan.D1 [stdout] The number of parameters: 8430528
stargan.D1 [stdout] Discriminator(
stargan.D1 [stdout]   (main): Sequential(
stargan.D1 [stdout]     (0): Conv2d(3, 64, kernel_size=(4, 4), stride=(2, 2), padding=(1, 1))
stargan.D1 [stdout]     (1): LeakyReLU(negative_slope=0.01)
stargan.D1 [stdout]     (2): Conv2d(64, 128, kernel_size=(4, 4), stride=(2, 2), padding=(1, 1))
stargan.D1 [stdout]     (3): LeakyReLU(negative_slope=0.01)
stargan.D1 [stdout]     (4): Conv2d(128, 256, kernel_size=(4, 4), stride=(2, 2), padding=(1, 1))
stargan.D1 [stdout]     (5): LeakyReLU(negative_slope=0.01)
stargan.D1 [stdout]     (6): Conv2d(256, 512, kernel_size=(4, 4), stride=(2, 2), padding=(1, 1))
stargan.D1 [stdout]     (7): LeakyReLU(negative_slope=0.01)
stargan.D1 [stdout]     (8): Conv2d(512, 1024, kernel_size=(4, 4), stride=(2, 2), padding=(1, 1))
stargan.D1 [stdout]     (9): LeakyReLU(negative_slope=0.01)
stargan.D1 [stdout]     (10): Conv2d(1024, 2048, kernel_size=(4, 4), stride=(2, 2), padding=(1, 1))
stargan.D1 [stdout]     (11): LeakyReLU(negative_slope=0.01)
stargan.D1 [stdout]   )
stargan.D1 [stdout]   (conv1): Conv2d(2048, 1, kernel_size=(3, 3), stride=(1, 1), padding=(1, 1), bias=False)
stargan.D1 [stdout]   (conv2): Conv2d(2048, 5, kernel_size=(8, 8), stride=(1, 1), bias=False)
stargan.D1 [stdout] )
stargan.D1 [stdout] D
stargan.D1 [stdout] The number of parameters: 45376448
stargan.D1 [stdout] Start training...
stargan.D0 [stdout] Generator(
stargan.D0 [stdout]   (main): Sequential(
stargan.D0 [stdout]     (0): Conv2d(8, 64, kernel_size=(7, 7), stride=(1, 1), padding=(3, 3), bias=False)
stargan.D0 [stdout]     (1): InstanceNorm2d(64, eps=1e-05, momentum=0.1, affine=True, track_running_stats=True)
stargan.D0 [stdout]     (2): ReLU(inplace=True)
stargan.D0 [stdout]     (3): Conv2d(64, 128, kernel_size=(4, 4), stride=(2, 2), padding=(1, 1), bias=False)
stargan.D0 [stdout]     (4): InstanceNorm2d(128, eps=1e-05, momentum=0.1, affine=True, track_running_stats=True)
stargan.D0 [stdout]     (5): ReLU(inplace=True)
stargan.D0 [stdout]     (6): Conv2d(128, 256, kernel_size=(4, 4), stride=(2, 2), padding=(1, 1), bias=False)
stargan.D0 [stdout]     (7): InstanceNorm2d(256, eps=1e-05, momentum=0.1, affine=True, track_running_stats=True)
stargan.D0 [stdout]     (8): ReLU(inplace=True)
stargan.D0 [stdout]     (9): ResidualBlock(
stargan.D0 [stdout]       (main): Sequential(
stargan.D0 [stdout]         (0): Conv2d(256, 256, kernel_size=(3, 3), stride=(1, 1), padding=(1, 1), bias=False)
stargan.D0 [stdout]         (1): InstanceNorm2d(256, eps=1e-05, momentum=0.1, affine=True, track_running_stats=True)
stargan.D0 [stdout]         (2): ReLU(inplace=True)
stargan.D0 [stdout]         (3): Conv2d(256, 256, kernel_size=(3, 3), stride=(1, 1), padding=(1, 1), bias=False)
stargan.D0 [stdout]         (4): InstanceNorm2d(256, eps=1e-05, momentum=0.1, affine=True, track_running_stats=True)
stargan.D0 [stdout]       )
stargan.D0 [stdout]     )
stargan.D0 [stdout]     (10): ResidualBlock(
stargan.D0 [stdout]       (main): Sequential(
stargan.D0 [stdout]         (0): Conv2d(256, 256, kernel_size=(3, 3), stride=(1, 1), padding=(1, 1), bias=False)
stargan.D0 [stdout]         (1): InstanceNorm2d(256, eps=1e-05, momentum=0.1, affine=True, track_running_stats=True)
stargan.D0 [stdout]         (2): ReLU(inplace=True)
stargan.D0 [stdout]         (3): Conv2d(256, 256, kernel_size=(3, 3), stride=(1, 1), padding=(1, 1), bias=False)
stargan.D0 [stdout]         (4): InstanceNorm2d(256, eps=1e-05, momentum=0.1, affine=True, track_running_stats=True)
stargan.D0 [stdout]       )
stargan.D0 [stdout]     )
stargan.D0 [stdout]     (11): ResidualBlock(
stargan.D0 [stdout]       (main): Sequential(
stargan.D0 [stdout]         (0): Conv2d(256, 256, kernel_size=(3, 3), stride=(1, 1), padding=(1, 1), bias=False)
stargan.D0 [stdout]         (1): InstanceNorm2d(256, eps=1e-05, momentum=0.1, affine=True, track_running_stats=True)
stargan.D0 [stdout]         (2): ReLU(inplace=True)
stargan.D0 [stdout]         (3): Conv2d(256, 256, kernel_size=(3, 3), stride=(1, 1), padding=(1, 1), bias=False)
stargan.D0 [stdout]         (4): InstanceNorm2d(256, eps=1e-05, momentum=0.1, affine=True, track_running_stats=True)
stargan.D0 [stdout]       )
stargan.D0 [stdout]     )
stargan.D0 [stdout]     (12): ResidualBlock(
stargan.D0 [stdout]       (main): Sequential(
stargan.D0 [stdout]         (0): Conv2d(256, 256, kernel_size=(3, 3), stride=(1, 1), padding=(1, 1), bias=False)
stargan.D0 [stdout]         (1): InstanceNorm2d(256, eps=1e-05, momentum=0.1, affine=True, track_running_stats=True)
stargan.D0 [stdout]         (2): ReLU(inplace=True)
stargan.D0 [stdout]         (3): Conv2d(256, 256, kernel_size=(3, 3), stride=(1, 1), padding=(1, 1), bias=False)
stargan.D0 [stdout]         (4): InstanceNorm2d(256, eps=1e-05, momentum=0.1, affine=True, track_running_stats=True)
stargan.D0 [stdout]       )
stargan.D0 [stdout]     )
stargan.D0 [stdout]     (13): ResidualBlock(
stargan.D0 [stdout]       (main): Sequential(
stargan.D0 [stdout]         (0): Conv2d(256, 256, kernel_size=(3, 3), stride=(1, 1), padding=(1, 1), bias=False)
stargan.D0 [stdout]         (1): InstanceNorm2d(256, eps=1e-05, momentum=0.1, affine=True, track_running_stats=True)
stargan.D0 [stdout]         (2): ReLU(inplace=True)
stargan.D0 [stdout]         (3): Conv2d(256, 256, kernel_size=(3, 3), stride=(1, 1), padding=(1, 1), bias=False)
stargan.D0 [stdout]         (4): InstanceNorm2d(256, eps=1e-05, momentum=0.1, affine=True, track_running_stats=True)
stargan.D0 [stdout]       )
stargan.D0 [stdout]     )
stargan.D0 [stdout]     (14): ResidualBlock(
stargan.D0 [stdout]       (main): Sequential(
stargan.D0 [stdout]         (0): Conv2d(256, 256, kernel_size=(3, 3), stride=(1, 1), padding=(1, 1), bias=False)
stargan.D0 [stdout]         (1): InstanceNorm2d(256, eps=1e-05, momentum=0.1, affine=True, track_running_stats=True)
stargan.D0 [stdout]         (2): ReLU(inplace=True)
stargan.D0 [stdout]         (3): Conv2d(256, 256, kernel_size=(3, 3), stride=(1, 1), padding=(1, 1), bias=False)
stargan.D0 [stdout]         (4): InstanceNorm2d(256, eps=1e-05, momentum=0.1, affine=True, track_running_stats=True)
stargan.D0 [stdout]       )
stargan.D0 [stdout]     )
stargan.D0 [stdout]     (15): ConvTranspose2d(256, 128, kernel_size=(4, 4), stride=(2, 2), padding=(1, 1), bias=False)
stargan.D0 [stdout]     (16): InstanceNorm2d(128, eps=1e-05, momentum=0.1, affine=True, track_running_stats=True)
stargan.D0 [stdout]     (17): ReLU(inplace=True)
stargan.D0 [stdout]     (18): ConvTranspose2d(128, 64, kernel_size=(4, 4), stride=(2, 2), padding=(1, 1), bias=False)
stargan.D0 [stdout]     (19): InstanceNorm2d(64, eps=1e-05, momentum=0.1, affine=True, track_running_stats=True)
stargan.D0 [stdout]     (20): ReLU(inplace=True)
stargan.D0 [stdout]     (21): Conv2d(64, 3, kernel_size=(7, 7), stride=(1, 1), padding=(3, 3), bias=False)
stargan.D0 [stdout]     (22): Tanh()
stargan.D0 [stdout]   )
stargan.D0 [stdout] )
stargan.D0 [stdout] G
stargan.D0 [stdout] The number of parameters: 8430528
stargan.D0 [stdout] Discriminator(
stargan.D0 [stdout]   (main): Sequential(
stargan.D0 [stdout]     (0): Conv2d(3, 64, kernel_size=(4, 4), stride=(2, 2), padding=(1, 1))
stargan.D0 [stdout]     (1): LeakyReLU(negative_slope=0.01)
stargan.D0 [stdout]     (2): Conv2d(64, 128, kernel_size=(4, 4), stride=(2, 2), padding=(1, 1))
stargan.D0 [stdout]     (3): LeakyReLU(negative_slope=0.01)
stargan.D0 [stdout]     (4): Conv2d(128, 256, kernel_size=(4, 4), stride=(2, 2), padding=(1, 1))
stargan.D0 [stdout]     (5): LeakyReLU(negative_slope=0.01)
stargan.D0 [stdout]     (6): Conv2d(256, 512, kernel_size=(4, 4), stride=(2, 2), padding=(1, 1))
stargan.D0 [stdout]     (7): LeakyReLU(negative_slope=0.01)
stargan.D0 [stdout]     (8): Conv2d(512, 1024, kernel_size=(4, 4), stride=(2, 2), padding=(1, 1))
stargan.D0 [stdout]     (9): LeakyReLU(negative_slope=0.01)
stargan.D0 [stdout]     (10): Conv2d(1024, 2048, kernel_size=(4, 4), stride=(2, 2), padding=(1, 1))
stargan.D0 [stdout]     (11): LeakyReLU(negative_slope=0.01)
stargan.D0 [stdout]   )
stargan.D0 [stdout]   (conv1): Conv2d(2048, 1, kernel_size=(3, 3), stride=(1, 1), padding=(1, 1), bias=False)
stargan.D0 [stdout]   (conv2): Conv2d(2048, 5, kernel_size=(8, 8), stride=(1, 1), bias=False)
stargan.D0 [stdout] )
stargan.D0 [stdout] D
stargan.D0 [stdout] The number of parameters: 45376448
stargan.D0 [stdout] Start training...
stargan.D1 [stderr] /Tmp/slurm.4112514.0/base/venv/torch/lib/python3.9/site-packages/torch/nn/_reduction.py:42: UserWarning: size_average and reduce args will be deprecated, please use reduction='sum' instead.
…
